visualization_densenet/synthetic_densenet_best_model.pth (torch_old, 791585 bytes, 410 tensors)

features.conv0.weight f4 [2, 3, 7, 7]
000000 3a d5 c2 bd 26 1b 31 3e fc b2 11 3e b0 90 32 3e
       -0.09513326 0.17295513 0.14228433 0.17438006
000010 1b c2 e9 bd 3c 87 45 3e 6e 90 1a be dd 39 2f 3e
       -0.11413976 0.19289869 -0.15094158 0.17111917
000020 76 47 3d 3d 36 c7 53 3e 6c 5b 94 be 08 c3 38 bd
       0.04621073 0.20681462 -0.28976 -0.04510787
000030 6c 81 70 3e 86 ee f0 3d 69 b0 07 3e bd 18 6a 3e
       0.2348687 0.11764245 0.13250889 0.22861
000040 02 ff 18 3e 9a 9d ea 3c 1a bf 2b be 65 26 86 3d
       0.14941028 0.028639603 -0.16772118 0.06550292
000050 c9 57 a6 3d 45 f5 cc 3d e0 05 97 bc 2b b7 ce 3d
       0.081222124 0.10007719 -0.018435419 0.1009353
000060 76 66 a4 bc 7a 37 84 3d 8e 25 64 bd 67 be b8 3d
       -0.020068388 0.06455894 -0.055699877 0.09020691
000070 1e fc db bd ea d9 92 3d 1c 21 59 bd f4 73 8f be
       -0.10741447 0.0717047 -0.05301009 -0.28018153
000080 62 1f 02 be b3 6b 76 bd b5 22 52 bd 58 d9 0a 3e
       -0.12707284 -0.060161304 -0.05130263 0.13559473
000090 87 5d c1 bd 5c bb 23 be da ec 65 be b7 be 1b be
       -0.09441667 -0.1598944 -0.22453633 -0.1520947
0000a0 f0 d8 8e 3c 39 c1 04 3e dc 70 4a bd e9 c9 31 be
       0.017437428 0.12964334 -0.049424037 -0.17362179
0000b0 db ff 49 3e 8d b0 50 be f8 4e 02 3d ea ab 79 3e
       0.19726507 -0.20379849 0.03181359 0.24381986
0000c0 33 8b 70 bd 78 af 1a 3d 99 43 8b bd d9 9f 26 3d
       -0.0587265 0.037764996 -0.068000026 0.040679786
0000d0 d4 c8 94 bd f3 1e 96 3d 9a 82 c5 3b 67 c8 8a bd
       -0.072648674 0.07330122 0.006027532 -0.06776505
0000e0 37 f3 1e 3c a2 d6 05 be ac a6 1f 3e 01 ce f9 3d
       0.009701542 -0.13070157 0.15590924 0.12197495
0000f0 06 16 7d 3c bd 45 da bd a7 bc 7f 3d d0 23 da 3d
       0.015447145 -0.10657833 0.062435772 0.10651362
000100 4a bd 56 3e aa a2 b2 bd 29 78 d7 bc 3b db fd 3d
       0.20970646 -0.08722432 -0.026302414 0.123953305
000110 7f 03 c6 3c 3e 5b 25 be 45 73 10 3e 99 0f 9d be
       0.024171589 -0.16148087 0.14106472 -0.30675963
000120 d7 ec 21 be 44 bd 47 be 10 78 a7 3d 1f 47 27 3d
       -0.15813003 -0.19505793 0.08177197 0.04083931
000130 42 95 01 be 54 75 ca bd 29 e0 d2 3d 14 91 9f 3d
       -0.12654594 -0.0988566 0.102966614 0.07791343
000140 ba f5 54 be a5 95 e6 3c 3f 90 c4 bc 35 f8 9c 3d
       -0.20796862 0.028147528 -0.023994563 0.07664529
000150 bf 92 92 bd 4b 94 7b 3d 1f 58 ac be 5e 56 02 3d
       -0.07156896 0.06142072 -0.3366098 0.031820647
000160 11 ac 16 bd f0 35 4c bc 9f d9 27 bd c7 99 dd 3c
       -0.03678519 -0.012464032 -0.040979024 0.027050866
000170 ab 4c 9c 3c 41 56 0c bd 22 f4 7a bd be 3d e0 bc
       0.019079527 -0.034261946 -0.06126798 -0.027373191
000180 dc a9 d8 3c f0 2d b0 bd ae 38 0e bc de ae c4 3d
       0.026448183 -0.08602512 -0.008680506 0.09603666
000190 33 63 1f bd 70 e1 0f bd 7d 98 db bd 50 13 5f be
       -0.038912963 -0.035127103 -0.10722444 -0.21784711
0001a0 e4 da ae 3a f7 38 65 bd 5b c4 33 3e e6 f7 f8 3d
       0.0013340381 -0.05596253 0.17555372 0.12156658
0001b0 2e 73 61 3e 33 e7 ee bd cc 94 09 3e fe ed 91 3b
       0.22016594 -0.116651915 0.13435668 0.0044534197
0001c0 79 28 19 ba 04 76 8a 3d 14 c9 05 bd 4b a8 af be
       -0.0005842518 0.06760791 -0.032662466 -0.34308085
0001d0 6d 94 42 bd b9 38 1f bd a6 e5 01 be 7c 3d ce bc
       -0.04750483 -0.038872454 -0.1268526 -0.025175802
0001e0 89 c2 80 3c 21 f3 a8 bd d9 06 77 be fa cb 05 be
       0.015717762 -0.08249498 -0.24123706 -0.13066092
0001f0 02 65 a9 3d 82 70 c1 bc 6e b7 dc bd b4 3f 33 be
       0.08271219 -0.023613218 -0.10777174 -0.1750477
000200 18 94 51 3d a3 da 09 be 0f 08 d7 bd 90 9f 48 bd
       0.051166624 -0.1346231 -0.10499584 -0.048980296
000210 d6 a2 b7 bc 04 8e 34 3d 95 8e 3b 3e 9c a6 46 3d
       -0.022416513 0.04408075 0.1831611 0.048498735
000220 74 a7 4f 3d 61 87 61 bd a5 5b 9a 3e 1f 7d 08 be
       0.050696805 -0.055060748 0.30148044 -0.1332898
000230 f5 cb 06 bd 87 bf 98 3d 01 ed 82 be 6a f6 cb bd
       -0.032909352 0.07458406 -0.25571445 -0.09959109
000240 52 5d a6 be 72 64 d5 3c fa f5 75 3c 81 dd 15 be
       -0.32493073 0.026048873 0.015012259 -0.14635278
000250 f2 4b b2 3e 16 9a 69 bd 00 81 9f bd e6 d3 40 3d
       0.34823567 -0.057031713 -0.07788277 0.047077082
000260 24 17 b8 bc 43 4d 28 ba d0 a0 d0 3c f4 d4 0f be
       -0.022471972 -0.00064202043 0.025467306 -0.14046079
000270 2d 56 0d 3d 8f 0e e0 bd 96 2a 58 3d d1 e7 2d 3d
       0.03450601 -0.10940277 0.052774988 0.042457405
000280 c2 3d 81 bd 6d b4 5f 3c 56 67 38 3c 97 6d 2d be
       -0.063106075 0.013653857 0.011255106 -0.16936336
000290 a2 db d5 bd f3 97 25 bd 01 d0 f5 bc 69 5d 23 3e
       -0.10442282 -0.040428113 -0.03000641 0.15953602
0002a0 9e 41 1f 3e 5d c9 85 be dd ed b8 bd fa d7 2b 3e
       0.15552375 -0.2613019 -0.09029744 0.16781607
0002b0 90 a0 81 3e c8 78 5c 3e 5a ee d2 3c 50 fb 41 be
       0.25317812 0.2153045 0.02574842 -0.18943524
0002c0 27 46 0f 3e a6 b5 bc 3d 95 71 23 3e 29 ab 81 bd
       0.13991605 0.09214334 0.15961297 -0.06331474
0002d0 4b 92 32 3d 43 2c 2c 3e de a4 99 3e 4c 99 c6 bc
       0.043596547 0.1681376 0.30008596 -0.02424302
0002e0 0d 92 11 bd c5 75 d3 3d ee d3 b7 3d a1 5f d2 3b
       -0.035539676 0.10325197 0.08975969 0.0064200913
0002f0 5c 97 7f 3b e3 39 49 3e 7c bb e8 3d a2 8e b6 bd
       0.003900013 0.19650988 0.11363885 -0.08913924
000300 80 0e e3 ba 6e 17 fa bc 0d bf 94 bd 09 ea 09 3e
       -0.0017323047 -0.03052875 -0.072630025 0.13468184
000310 9d db 49 3e 0a 8c 01 3d d7 88 7a bd 23 b0 a9 bd
       0.19712682 0.031627692 -0.061165657 -0.082855485
000320 86 56 7a 3d 2d 3f 33 be 13 34 1e 3e 9c 6e 8f be
       0.06111767 -0.17504568 0.15449552 -0.28014076
000330 c2 ff 85 bd cd 32 96 bc ee 68 61 be b7 e7 27 3e
       -0.065429226 -0.01833477 -0.22012684 0.16396986
000340 2b 78 b7 3c ab 23 52 3e 1d a2 fe 3c d7 e3 ae 3c
       0.022396168 0.20521419 0.031083161 0.021348877
000350 4e bf b9 3d 5b 30 fe 3d 23 f5 d5 bc 70 2f 86 3d
       0.090696916 0.12411567 -0.026117867 0.06552017
000360 7e e7 02 3e f6 ea 30 be a9 b4 5d be a1 21 9e 3b
       0.1278362 -0.1727713 -0.21650948 0.004825786
000370 fa 36 d6 bd 40 24 7c bd 93 50 4b 3d 4d 82 20 bd
       -0.10459705 -0.06155801 0.04963739 -0.039186765
000380 09 3c 96 3c d9 c6 9d 3d d1 a9 ae bd 9d bc 23 be
       0.018339174 0.07703943 -0.08528484 -0.15989919
000390 e3 b7 86 3b 4f 46 2c bd 58 34 4a 3d d7 5f 68 bd
       0.0041112765 -0.04205924 0.049366325 -0.056732025
0003a0 2e f1 7c 3d 3f 2b 59 3e 48 28 33 be 32 4e 91 3d
       0.061753444 0.21207903 -0.17495835 0.07094993
0003b0 4a 64 03 3e 97 d3 8b 3c 99 64 10 be e4 21 86 3d
       0.12831226 0.017068667 -0.14100875 0.06549433
0003c0 93 97 cd bc 1c 8f 7c 3a 24 59 19 bd b9 92 13 3e
       -0.02509669 0.0009634362 -0.037438527 0.14411439
0003d0 31 5c 9a 3d 28 2d e0 bd 92 64 eb bc 8e 7f 21 bd
       0.07537115 -0.10946113 -0.02873448 -0.039428286
0003e0 da 22 17 bb 59 64 76 be 06 03 a7 be ea ce e7 3c
       -0.0023061545 -0.24061717 -0.32619494 0.028296907
0003f0 90 1a 9d 3d 5e 22 65 bd 75 d8 7b 3c 09 c7 06 be
       0.07671082 -0.05594098 0.015371432 -0.13161863

features.norm0.weight f4 [2]
000000 7c 63 84 3f 71 47 5f 3f
       1.034286 0.87218386

features.norm0.bias f4 [2]
000000 29 45 20 bc 32 6c cb bd
       -0.009782114 -0.09932746

features.norm0.running_mean f4 [2]
000000 40 42 16 be 90 4b bc bc
       -0.1467371 -0.02298525

features.norm0.running_var f4 [2]
000000 cf 98 92 3e 27 13 95 3d
       0.2863221 0.07279044

features.denseblock1.denselayer1.norm1.weight f4 [2]
000000 db 2a 7b 3f 9a 6b 82 3f
       0.9811227 1.0189087

features.denseblock1.denselayer1.norm1.bias f4 [2]
000000 53 ed b9 bc 1f 7f 18 bd
       -0.022696173 -0.037230607

features.denseblock1.denselayer1.norm1.running_mean f4 [2]
000000 1f 29 a3 3e 78 83 3f 3e
       0.3186731 0.18702495

features.denseblock1.denselayer1.norm1.running_var f4 [2]
000000 c3 7e 1b 3e 42 17 69 3f
       0.15185075 0.91051114

features.denseblock1.denselayer1.conv1.weight f4 [32, 2, 1, 1]
000000 bb 08 b4 3f c7 72 b5 bc 37 63 c8 3f 2c 0b a2 bf
       1.4065164 -0.022149457 1.5655278 -1.2659659
000010 da 7a a0 bf e4 91 01 3f 2f fb d3 be 9b 87 6b bf
       -1.2537491 0.50613236 -0.41402575 -0.9200379
000020 ac 31 30 3f b4 58 85 bf fe d6 75 be 9c 3f 5d bf
       0.68825793 -1.0417695 -0.24007794 -0.86425185
000030 64 0f 3a bf 47 b0 48 bf e2 b0 3d 3f e3 e6 a2 3e
       -0.72679734 -0.7839398 0.74098027 0.31816778
000040 70 63 61 3f 31 f4 a5 3f 33 5b e9 be 48 2f 10 40
       0.88042355 1.2965146 -0.45577392 2.2528858
000050 c7 89 9c bf c0 7b 85 3f e4 75 ae 3f 52 da ce be
       -1.2229546 1.042839 1.3629727 -0.4040094
000060 d5 e2 4e 3f 9c b7 35 3f 44 bb 1d be d9 64 10 bf
       0.8081487 0.7098329 -0.15403467 -0.5640388
000070 cc 4f 11 40 29 47 79 bd b8 22 e1 3f d8 e8 21 bf
       2.2704954 -0.06085888 1.758872 -0.63245916
000080 1a 3a c2 be 09 53 91 3f ec 3e 13 3f 43 73 a5 be
       -0.37934953 1.1353465 0.57517886 -0.323145
000090 8c 34 80 be 08 3e 20 3f b5 e6 8e bf a9 32 6a 3f
       -0.2504009 0.6259465 -1.1164156 0.9148355
0000a0 21 fd 1d 3f cf 8e ab 3e 09 46 4e bf 4e d5 03 3f
       0.6171437 0.33507392 -0.80575615 0.5149735
0000b0 9d 46 63 bf 21 54 0c bf c3 d2 06 bf d0 09 8b 3d
       -0.8877962 -0.5481587 -0.52665347 0.06788981
0000c0 3b 16 e7 3e 0d 00 db 3e 08 aa ea 3e 54 22 91 3e
       0.45134148 0.42773476 0.4583285 0.28346503
0000d0 a9 91 af 3f 63 e6 11 40 57 26 a9 3e ed da 29 3f
       1.3716327 2.2796867 0.33037063 0.6634968
0000e0 43 71 91 3e 71 f8 4d be e8 cc bb 3f ee 46 17 3f
       0.28406724 -0.20114304 1.4671907 0.59092605
0000f0 1a 6c fd 3f 6a 72 5f 3f 11 3d d4 3e a1 8d 19 be
       1.9798615 0.87283957 0.4145284 -0.14995433

features.denseblock1.denselayer1.norm2.weight f4 [32]
000000 a9 36 81 3f c1 59 7b 3f c3 2c 82 3f a0 16 7e 3f
       1.0094806 0.9818383 1.016991 0.99253273
000010 90 0a 7f 3f 98 63 80 3f 91 0a 7a 3f 50 7a 7a 3f
       0.9962549 1.0030394 0.97672373 0.97842884
000020 ba d8 80 3f 81 37 80 3f 46 15 7e 3f 25 c4 7e 3f
       1.006614 1.0016938 0.9925121 0.9951804
000030 08 f6 82 3f bc 5b 80 3f f5 0c 81 3f b9 c9 7d 3f
       1.0231333 1.0027995 1.0082079 0.9913593
000040 0f 02 84 3f 8e f4 80 3f 00 3c 80 3f da d3 80 3f
       1.0313128 1.0074632 1.001831 1.0064652
000050 eb ff 7b 3f 3f 6b 7d 3f 7a aa 87 3f 10 d7 83 3f
       0.98437375 0.9899177 1.05989 1.0300007
000060 39 27 7f 3f 60 0d 7d 3f a2 61 7e 3f d9 d4 81 3f
       0.99669224 0.98848534 0.99367726 1.0143081
000070 97 fe 76 3f 11 f8 7e 3f 54 eb 80 3f 66 84 7f 3f
       0.96482223 0.9959727 1.0071816 0.998114

features.denseblock1.denselayer1.norm2.bias f4 [32]
000000 2b b9 ae bc cb dd 30 bd fa b2 17 3b d4 e3 4f bc
       -0.02132853 -0.04318027 0.002314745 -0.012688596
000010 a6 e0 fd bb b0 fe b8 bb f1 4a 88 bc c4 c7 4a bd
       -0.0077477274 -0.0056455955 -0.016637297 -0.049506918
000020 48 85 10 bd ad 8b 7d 3d 0a c1 4d bc eb 79 d2 3c
       -0.035283357 0.061900783 -0.012558231 0.0256929
000030 72 bc 92 bc 7e 7c 2d 3c f0 ac 31 3c 4f 19 2d bd
       -0.017912123 0.010588763 0.010844454 -0.042260464
000040 c8 78 3a 3c 56 e1 36 bc cd 09 62 bd bd 26 c0 3b
       0.011381336 -0.011162123 -0.055185128 0.005863993
000050 31 41 46 bd 09 5d 0e bc 78 a4 67 3d 71 a4 f5 3c
       -0.048402015 -0.0086891735 0.056553334 0.029985638
000060 2f 59 81 bd 39 43 20 bd fa f0 b6 3a 3c 8a dc 3c
       -0.063158385 -0.03912661 0.0013957315 0.026921384
000070 d4 1b 9b bb e2 58 02 bd ca c5 36 bc 52 d8 fb bc
       -0.004733542 -0.031823047 -0.011155555 -0.030742798

features.denseblock1.denselayer1.norm2.running_mean f4 [32]
000000 9f c7 5c 3e 87 4c 27 3c e8 06 d2 bd 1f a7 70 be
       0.21560524 0.010211117 -0.102552235 -0.23501252
000010 24 44 ae bd 23 36 4a be e6 7d 84 be c8 e9 32 3e
       -0.085090905 -0.19747214 -0.25877303 0.17471993
000020 0e 58 c1 3e ae 06 b1 3e 96 5c 21 3b 83 be 0d 3e
       0.37762493 0.3457541 0.0024621836 0.13842206
000030 9f f1 83 3e 5f 85 03 be 0d d7 af 3e e4 5d 21 3e
       0.2577028 -0.12843846 0.34343758 0.15758473
000040 7b 0d 1b 3e 96 99 f1 3c c8 c8 9d 3d 0e 5c ae bb
       0.15141861 0.02949218 0.077043116 -0.0053210324
000050 05 4c 22 3e e0 68 f8 bc 4b ff 75 be 5b 31 8e bd
       0.15849312 -0.030323446 -0.24023168 -0.069430076
000060 33 58 19 3e bf 0d fe 3d 95 ef 22 3f f4 a3 32 3e
       0.14975052 0.124049656 0.63646823 0.17445356
000070 d0 c4 02 3c 31 71 ad 3e 4a 1e f1 3e e2 fa 15 3d
       0.007981494 0.3387542 0.4709342 0.036616214

features.denseblock1.denselayer1.norm2.running_var f4 [32]
000000 5c bb dc 3f e4 62 5d 40 e2 a6 c6 3f a9 8b 7e 3f
       1.7244678 3.4591608 1.5519679 0.99431854
000010 f2 86 af 3f 57 ee 47 3f 60 a7 8d 3f ae b4 19 3f
       1.3713057 0.7809805 1.1066704 0.6004132
000020 5a 64 19 40 36 ef 9c 40 93 50 0d 40 17 62 dc 3f
       2.39675 4.9042006 2.2080429 1.7217435
000030 13 23 8e 3f 64 90 a9 3e d5 ba 8f 40 da d0 3d 40
       1.1104454 0.33117974 4.4915566 2.9658723
000040 81 ac a7 3f 17 88 bc 3e da f2 d2 3e 3b ad e3 3f
       1.3099519 0.36822578 0.41200906 1.7787241
000050 79 28 ec 3e 3c 9d 46 3f 8f 49 83 3f 1f 02 78 3e
       0.46124628 0.7758367 1.0256823 0.24219559
000060 a2 aa be 3e 54 54 8c 3e a4 79 dd 40 80 77 09 3f
       0.37239558 0.27408087 6.9210987 0.5369797
000070 c3 a4 d3 3d 41 4b 13 40 f3 b9 8a 40 5e 60 28 3e
       0.1033416 2.3014681 4.335199 0.16443011

features.denseblock1.denselayer1.conv2.weight f4 [8, 32, 3, 3]
000000 48 18 12 bb f7 fe 8f 3d 41 cd a5 3c 7e 66 ad bd
       -0.0022292305 0.070310526 0.020239474 -0.084668145
000010 5a c4 97 3c 3f 5e 85 3c 26 61 2a bd b3 87 0e be
       0.018526245 0.016280292 -0.041596554 -0.13918953
000020 be d6 ad b9 6f c6 85 bd 28 90 0d 3e ec d0 96 3d
       -0.00033157127 -0.06531989 0.13824522 0.073640674
000030 31 05 19 3e 57 48 a2 bd 5e d6 81 bd 4e 47 87 3d
       0.14943387 -0.07923954 -0.063397154 0.06605397
000040 27 10 31 3e 1c 8c 7c 3b 71 9b a8 bc 49 f2 33 bd
       0.17291318 0.003853566 -0.020581933 -0.043932233
000050 1b 49 c5 bb e9 e6 4d 3d 46 74 9f bb c3 ed ac bb
       -0.0060206777 0.05026904 -0.004866156 -0.005277367
000060 0c b5 40 3d 73 4f 67 bd 31 29 bc bd d5 25 ea 3d
       0.04704766 -0.056472253 -0.09187544 0.11432997
000070 4c d8 9d 3c 9d 35 85 3d fe c1 bf bd 83 c0 65 3d
       0.019268177 0.065043665 -0.09363173 0.056091797
000080 ce 91 e1 3b 59 cf 12 3d 11 11 37 bb dc 8f c4 3c
       0.0068838364 0.035842273 -0.0027933756 0.023994379
000090 c0 c0 70 bd d8 dd 02 be 47 b7 82 3d 99 80 bf 3d
       -0.05877757 -0.12779939 0.06382614 0.093507
0000a0 14 5e 18 3e 9f e7 be 3d 4c 9a 41 3c 37 75 c0 3d
       0.14879638 0.09321522 0.011816572 0.09397357
0000b0 87 72 4e bd 77 16 fc bd a7 e7 82 bd e0 7f 01 3d
       -0.05040219 -0.12308972 -0.063918404 0.03161609
0000c0 9e 06 13 3e 8e 3f bd 3d d8 0c 96 3c 9a cb 92 bd
       0.14357993 0.09240638 0.018316671 -0.0716774
0000d0 86 b7 bc 3c 31 ba 20 bd af c5 c5 bc d9 ff c7 3c
       0.02303673 -0.039240066 -0.024142114 0.02441399
0000e0 75 20 a8 3c 75 a3 b1 bc 17 15 9d bd 7c 13 8a bd
       0.02052329 -0.021684388 -0.07670038 -0.067419976
0000f0 66 90 d3 3d 62 26 5f 3d 6b 70 d0 bc 59 0e 58 3d
       0.10330276 0.054479964 -0.02544423 0.052748058
000100 8c d0 07 bd d6 f4 1e 3e c8 ab c8 bc 13 c4 53 3d
       -0.03315787 0.15523085 -0.024495974 0.051700663
000110 f8 a7 1a 3d df fc 09 be 10 e3 aa bd 09 9d 05 bd
       0.037757844 -0.13475369 -0.0834409 -0.032620464
000120 60 27 51 bd 69 42 d6 3d e1 8c 23 3e 24 ff 35 be
       -0.05106294 0.104618855 0.1597171 -0.1777311
000130 7e 97 02 be 03 a8 90 3c 84 c8 dd bb 76 fa db bc
       -0.12753102 0.01765824 -0.006768288 -0.026852828
000140 67 40 b9 3c 01 f4 cb 3d cc fb 8c 3d 1d 5e 9a bd
       0.022613717 0.099586494 0.06883964 -0.07537482
000150 8b f3 dd bd 44 6b ac 3d f3 86 e3 bd 47 c9 19 be
       -0.10837468 0.08418897 -0.11109724 -0.15018187
000160 ea 34 ed bd b9 4f 33 bc 97 3f d6 3c f8 91 0b 3d
       -0.11582358 -0.0109443 0.026153369 0.034074754
000170 16 1e ec 3d 24 15 b4 3d 48 88 92 3d ca e9 4f bb
       0.11529176 0.08793095 0.071549 -0.0031725042
000180 ea 13 a4 3d 41 93 90 3c 4b fe d5 3d 49 27 e0 bc
       0.08011611 0.017648341 0.10448893 -0.027362483
000190 13 85 68 bd 94 04 57 bd ae 14 16 3e 6c 55 cd 3c
       -0.056767534 -0.0524946 0.14656326 0.025065146
0001a0 86 ee c6 bc df 50 ac 3d 0d ef cc 3d 27 c8 49 bd
       -0.024283659 0.084138624 0.10006533 -0.049263146
0001b0 49 43 0d be f7 82 22 bd 96 5a 89 3e 0d 2a 22 3e
       -0.13795199 -0.03967568 0.26826924 0.15836354
0001c0 f5 97 d3 3d 83 46 58 3d ae 23 83 3c 7e a5 fc bc
       0.10331718 0.05280162 0.016008224 -0.030840632
0001d0 54 51 4e be f8 39 89 3d 42 0d ad 3d 19 c2 ae bd
       -0.20148212 0.0670051 0.08449794 -0.08533115
0001e0 8d 2a 5e 3c 98 64 3d be 78 b1 4e bc 8a 6c 98 3d
       0.01355995 -0.18495405 -0.012615554 0.07442577
0001f0 96 d1 38 be 64 e1 14 be 35 1e de 3d 5b ef ac bd
       -0.180487 -0.14539105 0.10845605 -0.08444091
000200 97 11 00 be 98 63 d7 3d e7 32 6a bc 02 9a f7 bd
       -0.1250671 0.10517043 -0.014294363 -0.120899215
000210 81 05 3b 3d 37 56 ba bd 4c 3d ce 3d 83 bc df bb
       0.045659546 -0.090984754 0.10070285 -0.0068278923
000220 29 56 7b be f2 f3 c8 3d de 9e 9b bd cb 07 f1 3d
       -0.24544586 0.09812154 -0.07598661 0.117690645
000230 57 bd 51 3e c5 2f 10 3d 02 af de 3c 54 fc 23 be
       0.20482384 0.035201807 0.02718306 -0.16014224
000240 67 ab 0d be d9 9f ea 3c c0 ed 8c 3d 79 42 68 bd
       -0.13834916 0.028640674 0.06881285 -0.05670402
000250 76 c0 f0 3d be 89 42 3e 0a ba f4 bd f2 13 d2 3d
       0.11755459 0.18997857 -0.11949547 0.102577105
000260 ed 71 42 3d 2e 99 a4 bd d9 a9 8f 3d 6b 8e 50 be
       0.04747193 -0.08037029 0.07014818 -0.20366828
000270 7b aa 5b 3e 63 57 e2 bb 3d fb 18 3d 25 02 8d 3d
       0.21451752 -0.00690739 0.037348974 0.06885175
000280 03 6f 2f 3e 4e aa cd bd 88 92 8b bd bb 5b c5 3d
       0.17132191 -0.10042249 -0.06815058 0.09636637
000290 c9 c6 84 3d 3e 42 3d 3d 6e f9 f2 bd 15 38 97 3d
       0.06483228 0.04620575 -0.11863981 0.07383744
0002a0 c7 5c 06 3e 80 24 03 be 84 02 74 bd 16 2a 38 bd
       0.13121329 -0.12806892 -0.05957271 -0.04496201
0002b0 44 09 f5 3d 66 85 06 be 35 0f 19 3d 17 7b 10 be
       0.11964658 -0.13136825 0.03736802 -0.14109455
0002c0 30 8c 58 3d 9e 2d fd bd 97 cc 89 be 76 45 f2 bc
       0.05286807 -0.123622164 -0.26913902 -0.029574137
0002d0 87 0f 7f bc a7 53 b8 3b 14 56 4a 3d b9 ab d2 3c
       -0.015567667 0.0056252065 0.049398497 0.02571665
0002e0 d9 cc 00 3d fe 1d c7 bc de 88 2e 3e d5 0d 7b bd
       0.031445358 -0.024306294 0.17044398 -0.061292488
0002f0 99 f2 05 3d b7 01 f7 bc 43 29 36 bd 77 38 15 be
       0.032702062 -0.030152185 -0.044472944 -0.14572321
000300 a3 ca e0 3d ae d8 3e bd f6 8f 91 bd ce 69 d0 3c
       0.1097615 -0.04659336 -0.071075365 0.025441077
000310 3c 88 1f bd 83 ea ba bd c3 0d 35 be 9c 7b bf bb
       -0.038948283 -0.09126761 -0.17681031 -0.005843593
000320 06 70 58 be df f1 37 bd f9 26 a8 3d 25 31 2f bd
       -0.21136484 -0.0449084 0.082105584 -0.042771477
000330 68 1b ff bd e2 e0 8d bd 24 1b 0e be 56 8c 5c 3d
       -0.12456399 -0.069276586 -0.13877541 0.053844772
000340 90 a6 36 bd 90 c4 11 bd af 2e 70 bc 2e 85 fd 3b
       -0.04459244 -0.035587847 -0.014659568 0.0077368235
000350 4b da 09 3e b6 23 1b be c2 4e ed bd c0 e6 78 3d
       0.13462178 -0.15150341 -0.115872875 0.060766935
000360 47 b4 15 be 25 35 6a bc 8b 21 1b bd 24 72 34 3d
       -0.14619552 -0.014294897 -0.037873786 0.044054165
000370 b3 38 83 bd 59 a3 17 be d1 9a 7b 3c 0b 58 16 3c
       -0.06407299 -0.14808406 0.015356735 0.0091762645
000380 60 d1 64 bd 9c 45 23 bd 42 cc a0 3d 19 46 0d 3c
       -0.055863738 -0.039861307 0.07851459 0.00862267
000390 da 2e 81 bc e9 c2 49 bd 0d 5a ad bc 65 01 ce 3c
       -0.01576941 -0.049258146 -0.021161104 0.02514715
0003a0 fa 27 e5 3a 3c 54 08 3e 8c 47 0a 3d 06 2f 0b bd
       0.0017483227 0.13313383 0.03375964 -0.033980392
0003b0 b6 47 0b bd 17 5f 80 bd e6 ec 84 3c fa 10 8d bc
       -0.034003936 -0.06268137 0.016226243 -0.01722001
0003c0 54 5e f4 3c 41 1c c0 3b cb dc cc bd f5 c3 92 be
       0.029830135 0.005862743 -0.100030504 -0.28665128
0003d0 91 e7 a8 3c 3c 0b dc 3d 13 ee c2 3c 8a 8b ae bc
       0.020618232 0.1074433 0.023795163 -0.021306772
0003e0 8e bf 46 3e b7 44 1c 3d 71 08 79 bd 8e b1 95 3d
       0.1940901 0.03815147 -0.060799066 0.073092565
0003f0 ec e2 4d be 40 42 57 3d a7 8f b7 3d de 87 83 3d
       -0.20106095 0.052553415 0.089629464 0.06422399

features.denseblock1.denselayer2.norm1.weight f4 [10]
000000 5a 94 7f 3f 2a b9 7f 3f 62 07 7f 3f 17 78 80 3f
       0.9983574 0.9989191 0.9962064 1.0036649
000010 a3 bb 79 3f 3d ef 81 3f 22 1b 78 3f 6b a7 86 3f
       0.97551936 1.0151135 0.969164 1.0519842
000020 4f 15 80 3f a4 04 81 3f
       1.0006503 1.0079541

features.denseblock1.denselayer2.norm1.bias f4 [10]
000000 c4 d1 b5 bc 8d 5d 9d 3b e4 66 3b bd 86 88 4b bd
       -0.02219475 0.004802412 -0.04575242 -0.049690746
000010 15 bc 12 39 73 f1 05 bd 9b 9c 70 bc 00 d5 84 3c
       0.00013993711 -0.032700967 -0.014685775 0.016214848
000020 bd a8 b2 3c d5 47 9a bb
       0.021808976 -0.00470827

features.denseblock1.denselayer2.norm1.running_mean f4 [10]
000000 1f 29 a3 3e 78 83 3f 3e ff e6 30 be 8d 1a 7f 3e
       0.3186731 0.18702495 -0.17275618 0.24912472
000010 aa 66 41 3e f5 dc c9 3a 84 ab 01 bc 55 2e e4 3e
       0.1888682 0.0015400933 -0.007914428 0.445666
000020 d5 cc 90 be 7e 27 86 3e
       -0.28281274 0.26202005

features.denseblock1.denselayer2.norm1.running_var f4 [10]
000000 c3 7e 1b 3e 42 17 69 3f 14 9c d6 3f 21 d9 a2 3f
       0.15185075 0.91051114 1.6766381 1.2722512
000010 1b 54 ac 3f dd 9e c7 3f 1a 5a 91 3f d2 76 49 3f
       1.3463167 1.5595356 1.1355622 0.7869693
000020 aa d1 bf 3f d6 42 9b 3f
       1.4985859 1.2129772

features.denseblock1.denselayer2.conv1.weight f4 [32, 10, 1, 1]
000000 00 2b 94 3e f1 34 b0 3e 11 2d cd be 24 3e 23 3f
       0.28939056 0.3441539 -0.40073445 0.63766694
000010 5b ac 3c 3c b6 c4 77 bf b9 83 e5 be a2 5e 04 3d
       0.011515702 -0.9678453 -0.4482706 0.03231681
000020 78 a6 fc be ad e0 69 3e c4 b1 1d bf f2 71 ab 3e
       -0.49345756 0.22839613 -0.61599374 0.3348537
000030 ba dc 2d 3c 9a c3 3c be f9 aa ea 3e 7d 6f c3 bd
       0.010611707 -0.18433991 0.45833567 -0.09542749
000040 5d 18 59 3e 03 01 a0 3e 9c 5e 58 bf 9d 21 92 3e
       0.212007 0.31250772 -0.8451936 0.2854127
000050 65 24 a5 3d 3e 49 b8 bd 9d 4c 8c be 56 6d 97 3e
       0.08063582 -0.08998345 -0.274022 0.29575604
000060 03 1c 9c 3e 64 11 05 bf 75 90 54 3e 35 98 ad 3d
       0.3049012 -0.5197966 0.20758231 0.08476297
000070 1d 28 30 3f ca cd d0 be ea 38 57 be dc 3f 62 3e
       0.6881121 -0.40782005 -0.21017805 0.22094673
000080 73 76 02 3f 63 d8 03 3f 5a 47 90 3e 5c 4c f6 3e
       0.5096199 0.51502055 0.28179437 0.48105133
000090 b0 45 fa be 4c 03 df be 3a 39 b8 3e 7e 43 75 be
       -0.48881292 -0.43557203 0.3598116 -0.23951527
0000a0 09 b4 0a 3f 55 a7 87 be d4 a8 dc 3e 63 9a 85 3e
       0.5418096 -0.26494852 0.43097556 0.2609435
0000b0 e9 25 d4 3e 21 f8 27 bf f6 7f 3e bf 41 b6 5a be
       0.41435173 -0.6561299 -0.74414 -0.21358587
0000c0 e9 f2 89 3f 0f 00 28 3f 94 0e 34 bf a7 88 8b be
       1.0777255 0.6562509 -0.70334744 -0.27252695
0000d0 b1 da 1d bc 06 f8 c7 3e 3d 9b f4 be 89 66 20 bf
       -0.00963466 0.39056414 -0.47774687 -0.62656456
0000e0 73 1e b7 3d 54 0c f6 3e 21 00 3b be e6 73 af 3e
       0.089413546 0.4805628 -0.18261768 0.3426811
0000f0 aa 69 e8 bb 03 a8 be be 88 51 54 bf 91 9d 54 3d
       -0.0070926743 -0.37237558 -0.82936907 0.05190808
000100 70 32 3a 3f c0 45 61 3f 9d 68 1c bf 92 07 e7 be
       0.7273321 0.87997055 -0.6109713 -0.45122963
000110 ae 63 44 be f8 c3 a6 be 77 43 c5 be 42 63 09 3e
       -0.1917865 -0.32571387 -0.38528034 0.1341677
000120 90 66 32 3f 73 48 a1 be 1b b1 a5 be 11 92 c5 3d
       0.6968775 -0.31500587 -0.32361683 0.096470006
000130 8a 97 29 3e db e9 d5 be f3 38 d4 bd a4 9c f4 3e
       0.16561714 -0.4177998 -0.10362425 0.47775757
000140 1f 76 ae be 31 a1 e8 3b eb ba 65 bd 03 70 45 3f
       -0.34074494 0.0070992936 -0.056086462 0.7712404
000150 3b 4f be 3e 56 74 a1 bf 31 10 4d be 61 c0 04 be
       0.37169823 -1.2613628 -0.20025708 -0.12964012
000160 da 25 bd 3b 98 4e 20 be 6c a8 66 3e e0 eb ca 3e
       0.0057723345 -0.15654981 0.22525185 0.39633083
000170 77 c5 3c be fb 3c 69 be d4 04 87 3e 47 88 bd bc
       -0.18434702 -0.22777168 0.2637087 -0.023136271
000180 d4 fa 05 bf 60 4d 56 be 88 61 49 be 2a d4 4a 3e
       -0.5233586 -0.20927954 -0.19666111 0.19807497
000190 03 bf e1 be b5 58 12 be df ed 13 3e b9 f8 57 3e
       -0.44091043 -0.14291652 0.1444621 0.21090974
0001a0 01 e3 8c 3f 49 0f 99 be 61 39 39 bf 96 9f 09 bf
       1.1006776 -0.29894474 -0.7235318 -0.53759134
0001b0 e8 10 36 bf c4 09 1c be bb 3f f0 3d 64 7b da be
       -0.71119547 -0.152381 0.117309056 -0.42672265
0001c0 0d 9d 00 bd 6f c6 57 3f 2d 20 8f 3f 5b f8 42 bd
       -0.031399775 0.8428716 1.1181694 -0.04760013
0001d0 ec 7b 28 bf 26 bf 0e bf 23 fa a1 bd 68 89 9f 3e
       -0.6581409 -0.5576042 -0.07909038 0.3115952
0001e0 ff 42 6b 3f ef c9 44 3f ed 68 1a bf 7b 0c ce 3d
       0.918991 0.76870626 -0.60316354 0.10060974
0001f0 48 00 01 bf 84 42 12 bf f1 17 a1 be 17 7f 23 be
       -0.50391054 -0.57132745 -0.31463578 -0.1596645
000200 70 61 86 3e 4f 81 19 3f 8f 76 ff bc de bc 52 bf
       0.26246214 0.59962934 -0.031184463 -0.8231944
000210 37 15 13 3f 4c 7d c0 3d 9d a6 d5 be e7 42 37 3e
       0.57454246 0.093988985 -0.41728678 0.17896615
000220 64 4f 25 bd ff ab 44 3e 90 86 9b be 87 e8 03 bf
       -0.040358916 0.19206236 -0.303761 -0.51526684
000230 4f b0 df 3e 3a 3e c1 3d c3 21 c3 bf 36 1f 24 bd
       0.436892 0.09435697 -1.5244678 -0.040068828
000240 ed fe 05 3d 6b 90 f2 bd 76 6e e0 bb 7b a0 1e 3d
       0.03271382 -0.11843952 -0.0068491055 0.038727265
000250 85 4d a3 be 3a c4 ba be f4 87 52 3f 62 bb 3e bf
       -0.3189508 -0.36477834 0.822387 -0.74504673
000260 64 b1 13 be 54 09 44 3e 4d 47 00 3e e3 fa 1d 3e
       -0.14423138 0.19144183 0.12527199 0.15427737
000270 5c 94 41 3e bd 7a 82 3a ed 19 6d 3f 77 45 27 3f
       0.18904251 0.0009954792 0.92617685 0.6534037
000280 10 bd 4b bf 23 89 9d 3e 58 df 10 bf 9b 98 f1 3e
       -0.7958536 0.3076869 -0.56590796 0.4718674
000290 64 43 c8 bd 11 d3 43 3f 03 35 ab 3e 16 3b 41 3e
       -0.09778479 0.76493937 0.33438882 0.18870196
0002a0 9e 80 dc 3e 3d 2e 33 3c c9 63 0a 3e 6b 94 f8 3d
       0.43066877 0.010936317 0.13514628 0.121376835
0002b0 80 85 e9 3e 86 3b 12 3e ba 1a c1 3d 42 53 3f 3e
       0.45609665 0.14280519 0.09428926 0.18684104
0002c0 0a db 82 bc 80 fc 74 3e 37 e9 62 be 79 55 3a 3d
       -0.015973587 0.23924446 -0.22159277 0.04549167
0002d0 56 80 52 3d 9b cf 95 bd de e9 33 3f db f0 78 bd
       0.051391922 -0.07314988 0.7027873 -0.060776573
0002e0 86 5b 27 be 47 47 c2 3e 6b c1 c9 3e e0 70 ac 3d
       -0.16343507 0.37945005 0.3940538 0.08419967
0002f0 40 c7 b2 3e 1b f9 93 3d f4 db 5a be 81 c2 eb 3d
       0.3491764 0.072252475 -0.21372968 0.11511708
000300 51 b5 da 3e a2 bb 8c be b7 dd 4b 3f 25 c1 1e be
       0.42716458 -0.27486902 0.79635185 -0.15503366
000310 07 09 04 bf 50 90 05 bf 81 68 ea bb b1 4c b0 be
       -0.51576275 -0.5217333 -0.007153571 -0.3443351
000320 57 aa 2d 3f f1 9f 6a 3e 09 93 87 3e b9 68 86 bc
       0.6783804 0.22912575 0.26479366 -0.016407358
000330 a6 37 84 be 9d a9 45 3f b9 68 02 bf 28 a3 cc 3e
       -0.25823706 0.77211934 -0.50941044 0.39968228
000340 0f 52 1e 3e 2e 34 d5 be fe 92 16 bf b3 c7 31 3f
       0.1546099 -0.41641372 -0.5881804 0.6944534
000350 54 a0 82 be cc 26 32 bd 68 69 9a 3d d7 39 68 bf
       -0.25512946 -0.04349403 0.07539636 -0.90713257
000360 ba 24 22 3d 94 f3 11 bf bc b2 56 3d e5 3f 68 be
       0.039585806 -0.57012296 0.052416548 -0.22680624
000370 1d 08 ca bd 21 29 3b 3f b7 71 97 be 8e 2b d2 be
       -0.09864829 0.7310963 -0.29578945 -0.41048855
000380 45 35 22 3f 49 40 89 3f 43 5a 3f bd b0 43 22 bf
       0.6336253 1.0722743 -0.04671694 -0.6338453
000390 88 9f 05 be d4 98 02 3e 2a f4 f6 3e bb 2d ab be
       -0.13049138 0.12753612 0.48233157 -0.33433327
0003a0 9d 3f 18 bc 0f 1e 9b 3e be 6f 33 be 40 d6 58 be
       -0.00929251 0.3029637 -0.17523095 -0.2117548
0003b0 52 2f a5 be 0e 1d 17 3f f1 6f e8 3e e0 cf 24 3e
       -0.32262665 0.5902871 0.45397905 0.16094923
0003c0 a7 e7 36 bf 44 83 3e 3f d9 1b 50 3f 40 1a 01 be
       -0.71447223 0.74419045 0.8129249 -0.1260767
0003d0 52 18 c5 bd 5b d5 29 be 46 ac be 3e d4 64 e5 3e
       -0.09623779 -0.16585295 0.3724081 0.44803488
0003e0 0a 88 2e 3e 98 54 2b bf 8a 94 dc bd ad ae be 3e
       0.17044082 -0.66925955 -0.10770519 0.37242642
0003f0 32 f9 b0 3e 2e 5f 5e be a3 5d 0b 3f 01 4d 25 3f
       0.3456512 -0.21715996 0.54439753 0.64570624

features.denseblock1.denselayer2.norm2.weight f4 [32]
000000 90 eb 7a 3f c8 86 80 3f 78 90 80 3f 42 03 80 3f
       0.9801569 1.0041132 1.0044088 1.0000994
000010 22 76 82 3f 31 f8 80 3f e1 53 83 3f d0 76 7d 3f
       1.0192301 1.0075742 1.0259973 0.9900942
000020 74 72 7c 3f 14 db 83 3f eb 82 83 3f 95 78 83 3f
       0.9861214 1.0301232 1.0274328 1.0271174
000030 11 75 83 3f ed b4 80 3f 6d 69 83 3f c9 a1 7a 3f
       1.0270101 1.0055214 1.0266548 0.97903115
000040 da 51 77 3f a5 15 80 3f d6 f4 81 3f 61 f1 7a 3f
       0.9660927 1.0006605 1.0152843 0.98024565
000050 7a ee 7e 3f 95 96 7d 3f 64 79 7c 3f d1 61 81 3f
       0.99582636 0.99057895 0.9862273 1.0107976
000060 8b 47 81 3f 3a f9 80 3f 91 2a 7e 3f 5e b1 7f 3f
       1.0099958 1.0076058 0.992837 0.99880016
000070 e5 d1 7a 3f d5 05 7f 3f e5 2e 7b 3f 50 ad 7f 3f
       0.97976524 0.99618274 0.9811843 0.9987383

features.denseblock1.denselayer2.norm2.bias f4 [32]
000000 09 fb d7 3c 8b 18 78 3b e8 ed 45 bc 89 e5 c6 3c
       0.02636482 0.0037856426 -0.012080647 0.024279373
000010 42 21 0d 3c 77 ee b1 bc d7 31 51 3d fd 64 17 3d
       0.008613886 -0.021720154 0.05107292 0.036961544
000020 6d 16 b7 3b e5 1b 3a 3b fe 5b cb 3c 2f 51 34 bc
       0.00558739 0.0028397974 0.024824139 -0.011005684
000030 36 aa 73 3c 95 45 cb 3c e6 37 32 3c 74 eb da bc
       0.014872124 0.024813453 0.010877585 -0.0267236
000040 7a 3f 37 bc cc f0 5c 39 e7 b1 fe 3c db 70 0c bc
       -0.011184568 0.00021070539 0.03109069 -0.008571829
000050 c1 4c 1b bd 6f 2b b1 bb 3a 5c b3 bc 3e 16 bb 3b
       -0.037914995 -0.005406789 -0.021894563 0.0057094386
000060 2c 22 24 3d 8f d4 cc bb 49 d4 61 3c e0 eb 41 bc
       0.04007165 -0.006250925 0.013783523 -0.011836022
000070 ef c3 35 bd ce b7 cd 3c 4b cc 39 3c c9 7f d8 ba
       -0.04437631 0.025112059 0.011340211 -0.0016517575

features.denseblock1.denselayer2.norm2.running_mean f4 [32]
000000 d8 11 fc bd 41 37 ba 3c 5f 2b 7c 3d 34 b5 e5 3d
       -0.12308091 0.022731425 0.0615648 0.112162024
000010 e0 15 91 3e ef 0a 09 be 04 10 82 be fe 80 4e 3c
       0.28337002 -0.13383077 -0.25402844 0.012603996
000020 97 f2 2a be 4a c9 e0 bc 66 50 8d be 5f 76 2b 3d
       -0.16694103 -0.027439732 -0.27600402 0.041860934
000030 4f 78 d8 3d 1d b0 5a be a4 38 a0 be 25 78 b3 3e
       0.10569822 -0.21356244 -0.31293213 0.350526
000040 00 13 0c 3e 98 b0 4b 3e 25 6b 92 3e 9d db de bd
       0.13679123 0.19891584 0.2859737 -0.10881732
000050 00 d3 51 3e 40 fc 8b be 74 c8 07 3e 4b 92 36 3e
       0.20490646 -0.2734089 0.1326006 0.17829244
000060 63 2c 2b 3e 4b 86 b6 3e f0 93 a7 be c5 29 01 bd
       0.16716151 0.35649332 -0.32730055 -0.031533975
000070 5e 7a af bd 26 16 d1 bd 55 85 68 3c 49 45 75 3e
       -0.085682616 -0.102093026 0.014191945 0.23952211

features.denseblock1.denselayer2.norm2.running_var f4 [32]
000000 62 ac 32 3f 3e 28 86 3f e7 c6 ac 3e 2c de 84 3e
       0.69794285 1.0481031 0.337455 0.25950754
000010 13 0a 21 40 4a 2a c2 3e 03 d5 da 3f 02 2f ce 3e
       2.51624 0.3792289 1.7096256 0.4027024
000020 b6 6a 4b 3f b1 d2 96 3e cf 2d 03 40 c0 e1 c7 3f
       0.794597 0.2945762 2.049671 1.5615768
000030 f3 c9 95 3f a2 dc 9a 3f 8b 86 df 3f 38 0e 0d 40
       1.1702255 1.2098582 1.7462934 2.2039928
000040 62 88 c6 3f c0 78 f0 3e 29 23 64 3f 96 1f 25 3f
       1.5510371 0.46967125 0.8911615 0.6450132
000050 48 cc b2 3f b6 d3 b8 3f d9 91 b5 3f d9 b9 82 3f
       1.3968592 1.4439609 1.4185134 1.0212966
000060 97 15 cd 3f 91 98 df 3f cf bf 0a 40 16 4a fd 3d
       1.6022214 1.7468435 2.167957 0.123676464
000070 32 51 7e 3e 22 15 fe 3f fa c8 51 3f 3a 35 f2 3f
       0.24835661 1.9850199 0.8194729 1.8922493

features.denseblock1.denselayer2.conv2.weight f4 [8, 32, 3, 3]
000000 c7 76 17 3d e2 7a 3a bc 61 f3 a7 3c f5 1e 76 bc
       0.03697851 -0.011381837 0.020501794 -0.015022029
000010 0c dd 16 3d b5 4e 7d bc e4 a7 0b bc 77 3f 12 3e
       0.0368319 -0.01546066 -0.008523915 0.14282022
000020 95 7f dc bd 94 d0 1d bd fe 2b 1d be 1d ad f5 bd
       -0.10766522 -0.038528994 -0.15348813 -0.11995909
000030 9e 07 79 3c d8 bc b9 3c b4 93 1a 3d 4a f1 38 bd
       0.01519957 0.022673056 0.037738517 -0.045151986
000040 dc c2 61 bd a2 4a ce bd 41 5c af 3d d8 36 99 3c
       -0.055117473 -0.10072829 0.08562518 0.01870291
000050 6a 1a 44 3d 05 6e 21 bd 22 87 c6 bc 39 65 bd bc
       0.047876753 -0.039411563 -0.024234358 -0.023119556
000060 87 be 35 3c 35 76 20 be f7 de a6 bd 56 f4 e6 bb
       0.011092789 -0.15670092 -0.08147996 -0.00704817
000070 f2 4f dc 3d a8 08 59 3b 0b 58 14 3e e3 67 09 3c
       0.10757436 0.0033116732 0.1448671 0.008386585
000080 f0 74 92 bd fa 5f 26 bd 56 f3 5e bd b0 51 11 3e
       -0.0715121 -0.040618874 -0.054431282 0.14191318
000090 da 04 90 bd 24 3c 0c be ea 1a 3d bd d5 bc 21 3e
       -0.07032175 -0.13694817 -0.046168245 0.1579469
0000a0 d5 86 ae 3d a5 78 67 be c6 38 5d 3d ff 21 cc bd
       0.08521811 -0.22604616 0.05400922 -0.09967422
0000b0 34 5e 02 be 10 96 20 bd 2b 11 1d 3e 21 3a 59 3d
       -0.12731248 -0.03920561 0.1533858 0.05303395
0000c0 29 d5 cc ba 7f 5f ee bc a3 fc 4f bd 9b fd 80 3d
       -0.0015627492 -0.02909827 -0.050778043 0.062983714
0000d0 ba 26 85 bd a3 fc 10 bc fe 47 f6 3c 58 8d 20 3d
       -0.06501527 -0.008849296 0.030063625 0.039197296
0000e0 59 52 d2 3d 97 1b 17 be eb b4 67 bc 65 4d 54 3d
       0.10269613 -0.14756618 -0.014142255 0.05183162
0000f0 1e 2c 02 3e ef 09 9a bd 43 b0 88 bd a6 ee 2e 3d
       0.12712142 -0.07521426 -0.06674244 0.04270806
000100 cd dc 26 3d d9 59 62 bc 72 b0 eb 3d 8a 56 7d 3c
       0.040737916 -0.013815367 0.11508264 0.015462527
000110 3f b0 2f 3d 79 38 81 3b 7e 77 39 be 64 92 af bc
       0.04289269 0.0039434996 -0.18111989 -0.02143211
000120 d0 37 62 3d 5a 8c 45 3d 35 f7 6c 3d 43 dd d2 3d
       0.05522901 0.048229553 0.057852942 0.102961086
000130 5d 01 bd 3d de 94 f3 bd 09 90 47 bd 26 e2 0d bd
       0.09228776 -0.118936285 -0.048721347 -0.0346395
000140 ef 49 ec 3d 33 06 02 be 27 42 94 3d 24 2e 57 bc
       0.11537539 -0.12697677 0.0723918 -0.013133559
000150 f2 be 89 3c aa 3e 92 bc 95 fe 3c 3d 71 27 41 be
       0.016814683 -0.017852146 0.046141226 -0.18862702
000160 5d aa d4 3c bb f0 9c 3c 87 42 4e 3d b9 fe 80 3c
       0.025960142 0.019157758 0.050356414 0.015746461
000170 ee ca 86 3d 58 61 ef 3d 5d e0 86 3d 68 0d 7f bd
       0.065816745 0.11688489 0.06585763 -0.062268645
000180 e7 31 32 3d f3 6a a9 3d 57 1e 7b bd 08 a7 ed 3a
       0.04350462 0.08272352 -0.06130823 0.0018131444
000190 9d 22 30 bd d5 8b 0a be 8b 4c 85 bd 6e f3 16 3e
       -0.04300176 -0.13529904 -0.0650874 0.14741299
0001a0 de 59 d4 3c 45 e0 a8 3b d1 64 83 3d cc f9 74 3e
       0.025921758 0.005153688 0.064157136 0.23923415
0001b0 40 b1 8b 3d 71 76 5a bd dc 4f 66 3d 61 19 43 3e
       0.06820917 -0.05333561 0.056228504 0.1905265
0001c0 a4 af 88 bc 40 ac 94 3b 41 d3 0b bd 1c 37 06 bd
       -0.016685314 0.0045371354 -0.034137014 -0.0327674
0001d0 70 be e0 bc 4f 3e c0 bd 7c 29 77 3e fa d7 9e 3d
       -0.027434558 -0.093868844 0.24136919 0.07756038
0001e0 76 14 24 3e ba 73 11 3e 3a 5e 09 3d 83 3c 07 3d
       0.1602343 0.14204302 0.033537127 0.033016693
0001f0 01 ce 00 bd c7 fc 8f 3d 47 77 18 3d a5 68 ac bd
       -0.03144646 0.07030635 0.037223127 -0.08418397
000200 a7 ee 05 3d 5a fe 78 bd 80 49 2d be ba 5e 4e 3d
       0.0326983 -0.060789444 -0.1692257 0.050383307
000210 2f 91 d9 bd f3 f3 06 be d8 ba 39 bd 4a 96 9c bd
       -0.10623395 -0.13178997 -0.045344204 -0.07645853
000220 5a 8b f1 bc 65 3b 46 bd dd a8 57 3d b6 7c 9c 3d
       -0.029485393 -0.048396487 0.052651275 0.07640974
000230 2b 09 43 bc ff a9 bf 3d 30 d1 e6 bd 2c c0 06 3d
       -0.011904041 0.09358596 -0.11270368 0.032898113
000240 48 3e dd 3d 08 41 92 bd 8a 61 76 bd 83 51 99 bc
       0.10802895 -0.0714131 -0.060151614 -0.018715626
000250 59 f2 89 bb a9 82 29 3d 96 4b fe 3d b9 18 c1 3d
       -0.0042097983 0.041384373 0.124167606 0.094285436
000260 50 9c e0 bd 57 43 a2 3c ca 83 f4 3b d2 2e d4 3d
       -0.10967314 0.0198075 0.0074619995 0.10360493
000270 82 c1 b9 bd 20 16 2c 3d 79 ba 6d bd 39 52 1f 3e
       -0.09070112 0.042013288 -0.058039162 0.15558709
000280 c2 bc 8a 3d 03 68 5a 3c cb f8 22 3d 8e 4a d9 bd
       0.06774284 0.013330462 0.03978805 -0.10609923
000290 fd 6b 3a be c9 3a 46 bd f4 0b 12 3e 36 81 c8 3c
       -0.18205257 -0.048395906 0.14262372 0.024475675
0002a0 dd 2d e7 bc 89 75 da bd 10 ac 60 bc 89 61 ec 3d
       -0.028220112 -0.10666949 -0.013712898 0.11542041
0002b0 1c ff a1 bb 4d d0 1d b9 f0 38 d2 3d 26 d3 44 bd
       -0.0049437415 -0.00015050285 0.10264766 -0.04805293
0002c0 04 fc 39 bd f0 62 2a 3e 4a 88 5d 3e fa 11 33 bd
       -0.045406356 0.16639304 0.21634021 -0.043718316
0002d0 38 cb bf 3d e7 a2 ad 3d 07 b0 73 3d 93 0d d0 3d
       0.09364933 0.08478337 0.059494045 0.10158839
0002e0 20 3e 39 bd d4 18 4c 3e c5 25 a9 3d 60 14 bd 3d
       -0.045225263 0.19931346 0.08259157 0.09232402
0002f0 b0 e2 92 3d 56 10 9b 3c 40 20 70 3e a1 7c a5 3a
       0.071721435 0.018928688 0.23449802 0.0012625643
000300 ce 2b db 3d 6a 93 eb bc a0 eb b5 3d e1 65 36 3d
       0.107017145 -0.028756816 0.088828325 0.044530753
000310 ad 05 bf bb 0e 8e 0e be 7f 6a c8 3c 23 e9 ab 3d
       -0.005829534 -0.13921377 0.024464844 0.08394077
000320 53 29 84 bd ae af 52 3d ac 5c 24 3d b5 46 21 3e
       -0.064531945 0.051437072 0.04012744 0.15749629
000330 c7 0b 4b bb 8d de 82 bd 9c 85 bb 3d 5e cc d8 bb
       -0.0030982362 -0.063901044 0.09156343 -0.0066161593
000340 9d 0b 93 bc 6a b3 81 bd bd 74 23 3e 9a fd e4 3c
       -0.017949874 -0.06333049 0.15962501 0.027952958
000350 77 2c 16 be 73 23 83 bd d2 88 12 3d 38 9c a1 ba
       -0.146654 -0.06403246 0.035775013 -0.0012329882
000360 fe d7 19 be f7 bd 94 bd 79 fc e2 bd 44 7b 0e bd
       -0.150238 -0.072627954 -0.110833116 -0.034785524
000370 76 6a 3d 3e 7e 5b 0e 3e 6f 3d 11 be 73 18 13 3c
       0.18497643 0.13902089 -0.14183591 0.008977997
000380 3b e4 21 3e cf e5 f8 3d 9d 62 d9 bd 27 d9 b3 3c
       0.1580972 0.121532075 -0.10614512 0.021954132
000390 f0 8d 17 3d ed aa b1 3d 31 35 14 bd fb 00 1f bc
       0.037000597 0.0867518 -0.03618354 -0.009704824
0003a0 de c6 8d bd b9 d2 f8 3d dc 68 2a bd 9d 93 11 3e
       -0.069226965 0.12149567 -0.041603908 0.14216466
0003b0 9d 2d 19 3e 4a 94 2a 3d 80 e1 fc bd 5a f2 ed bd
       0.14958806 0.041645326 -0.12347698 -0.116184905
0003c0 a4 a1 47 bc 0a 55 05 bd cf a0 53 3c 59 70 8b bd
       -0.012184534 -0.032551803 0.012916758 -0.06808538
0003d0 0c 49 ac 3c 19 f7 a3 3d 40 2b 33 bd af 53 dc 3d
       0.021030925 0.080061145 -0.04374242 0.10758149
0003e0 d2 4a bc ba 8f 8d c1 bd a5 d4 e2 bd 20 6d e6 3d
       -0.001436556 -0.09450828 -0.11075715 0.11251283
0003f0 b2 0f 31 3e 06 98 7c 3d d3 fd fe 3a fa 05 ed bd
       0.17291144 0.06166842 0.0019454308 -0.115734056

features.denseblock1.denselayer3.norm1.weight f4 [18]
000000 5a 74 79 3f bc 82 80 3f 93 7e 7c 3f 2d ea 80 3f
       0.97443163 1.0039897 0.98630637 1.0071465
000010 c2 9a 82 3f b5 1d 80 3f b1 4b 7f 3f dd dc 81 3f
       1.0203478 1.0009066 0.9972487 1.0145527
000020 84 a8 7a 3f 7e f6 74 3f ac d8 82 3f f9 06 7f 3f
       0.97913384 0.9568862 1.0222373 0.99620014
000030 92 c4 7f 3f 7c ce 7f 3f 86 b1 7a 3f 9d de 81 3f
       0.9990932 0.99924445 0.9792713 1.0146061
000040 cb 50 80 3f 69 59 84 3f
       1.0024656 1.0339786

features.denseblock1.denselayer3.norm1.bias f4 [18]
000000 7e a0 09 bd ff 60 7c 3c 26 84 e7 3a 41 3b fe 3c
       -0.033600323 0.015403985 0.0017663285 0.031034114
000010 ef 8f 2a 3d b6 bb 94 bc d0 88 cb bb 4c 6a 3b bd
       0.041641172 -0.018155914 -0.0062113777 -0.04575567
000020 b9 8a 08 bd 47 8f c3 bc dc 8d d8 3c 0c d7 31 3c
       -0.03333542 -0.02387203 0.026434831 0.010854494
000030 73 8e be 3c 6b 73 41 bd 6b f6 5e 3c 0c 10 ee 3c
       0.023261284 -0.04722921 0.013608555 0.029060386
000040 a1 b0 3a bd c4 c0 05 bd
       -0.045578603 -0.03265454

features.denseblock1.denselayer3.norm1.running_mean f4 [18]
000000 1f 29 a3 3e 78 83 3f 3e ff e6 30 be 8d 1a 7f 3e
       0.3186731 0.18702495 -0.17275618 0.24912472
000010 aa 66 41 3e f5 dc c9 3a 84 ab 01 bc 55 2e e4 3e
       0.1888682 0.0015400933 -0.007914428 0.445666
000020 d5 cc 90 be 7e 27 86 3e b1 1e 03 3f ff f4 ad be
       -0.28281274 0.26202005 0.51218706 -0.3397598
000030 e9 ab f1 bd c9 a8 22 3f f5 69 83 be ab 60 0f 3f
       -0.118003674 0.63538796 -0.25666776 0.5600688
000040 71 6d 20 3f 82 96 42 3d
       0.62666994 0.047506817

features.denseblock1.denselayer3.norm1.running_var f4 [18]
000000 c3 7e 1b 3e 42 17 69 3f 14 9c d6 3f 21 d9 a2 3f
       0.15185075 0.91051114 1.6766381 1.2722512
000010 1b 54 ac 3f dd 9e c7 3f 1a 5a 91 3f d2 76 49 3f
       1.3463167 1.5595356 1.1355622 0.7869693
000020 aa d1 bf 3f d6 42 9b 3f c0 bc 80 3f de d8 0a 40
       1.4985859 1.2129772 1.0057602 2.1694865
000030 b7 83 bf 3f df 77 bf 3f 63 53 e3 3f ca 8b 97 3f
       1.4962071 1.4958457 1.7759823 1.1839535
000040 dd 06 4e 40 76 4b 2a 40
       3.219169 2.6608558

features.denseblock1.denselayer3.conv1.weight f4 [32, 18, 1, 1]
000000 d8 a9 03 3f 4e b8 cf be a1 a2 45 be 76 e2 21 3f
       0.51431036 -0.405703 -0.19300319 0.63236177
000010 c0 81 8f be cc 96 84 bd 2f 94 a6 3e a4 e9 0e 3f
       -0.2802868 -0.06474075 0.3253493 0.5582526
000020 fc 6e 57 3e c4 5d a0 3e bb b6 c7 3d 73 c0 a9 be
       0.21038431 0.31321537 0.0975165 -0.3315464
000030 5b 0a 2a 3e 53 1f 5e 3e 8d 81 dc 3e b7 86 99 be
       0.16605513 0.21691637 0.4306759 -0.29985592
000040 6e c5 43 3c 1f 9e 56 3f 9c 47 7f be ce c3 b1 be
       0.011948926 0.83835024 -0.2492966 -0.347197
000050 61 4f 81 3e 53 b6 47 3e 7a 13 21 3d 0c 02 b0 3e
       0.25255874 0.19503145 0.039325215 0.34376562
000060 3d 9f 1d bd 21 d3 79 3e a0 9b 0e be 4d 76 ed 3e
       -0.03848194 0.24396946 -0.13926554 0.4637932
000070 e6 14 e3 3d b3 a3 b7 be d1 62 1a 3e e8 3f 09 bf
       0.110879704 -0.3586708 0.15076758 -0.5361314
000080 06 ae 0f bf e4 ce 28 3f ba 18 a6 3e a9 e1 e1 bc
       -0.56124914 0.6594069 0.3244074 -0.027573423
000090 c1 b0 0b 3e fe 12 42 3e 82 8c 12 bf 40 44 a0 3e
       0.13641645 0.18952557 -0.5724565 0.3130207
0000a0 d3 00 d0 3d 2b 08 22 be 95 89 ed bd 5d 48 65 3e
       0.10156407 -0.15823428 -0.11598507 0.22390886
0000b0 9b 3c 2b be 5a c4 08 3f 43 f2 d2 bd 59 4d 45 3e
       -0.16722338 0.5342461 -0.10300114 0.19267787
0000c0 29 54 43 be 06 e7 ba be fd bf e5 bd 4d 8b e1 3d
       -0.19075073 -0.36504382 -0.112182595 0.11012898
0000d0 27 15 b0 3e 0c fc 3f 3e 93 85 0c 3e ef 67 1e be
       0.34391138 0.18748492 0.1372283 -0.15469335
0000e0 30 e2 00 be 1d 6b 90 be 4c 18 58 be 60 5d 97 3e
       -0.12586284 -0.2820672 -0.21103019 0.29563427
0000f0 95 d9 9a bd 1b d3 7f bd 10 72 2d 3e 2b d2 88 be
       -0.07561032 -0.062457185 0.16938043 -0.26722845
000100 a5 1e 77 bd ed 1c b0 be 93 ab a6 3e 1e ba 5f be
       -0.06033196 -0.3439707 0.32552776 -0.21848342
000110 39 22 78 bf 2d 7f 98 bd 6d 2b fa be 3d 86 b0 3d
       -0.9692722 -0.07446132 -0.48861256 0.08619354
000120 f0 32 c4 3d a6 7b 06 bf a1 0c 9b 3e a1 21 e4 bd
       0.09580028 -0.5253242 0.30283073 -0.11139227
000130 ba a6 6c bd 41 39 69 be 02 89 47 be 01 8d c6 3e
       -0.05777619 -0.22775747 -0.19485858 0.38779452
000140 13 09 87 3e 9e c6 2e 3f 12 4d 84 3e 8a 48 f9 3d
       0.2637411 0.68271816 0.2584005 0.12172039
000150 d7 85 03 3e ef 92 3a be 5c 11 08 bf 7d 3a 12 3f
       0.12844025 -0.18220113 -0.5315149 0.57120496
000160 55 69 61 bf e2 66 03 be 0f 1e 54 be 35 38 d0 3c
       -0.8805135 -0.12832215 -0.20714591 0.025417427
000170 4c c4 bb 3e d1 a8 31 3e d8 0b 18 be 37 7b af bd
       0.366732 0.17349555 -0.14848268 -0.08568423
000180 2b 2c 50 3e dd fa 7b be 0c c2 44 3e 93 82 bd 3e
       0.20329349 -0.24607415 0.19214648 0.37013683
000190 92 06 27 be ad 79 c4 be 56 a2 3a be d2 44 17 3e
       -0.163111 -0.3837408 -0.18225989 0.14772347
0001a0 eb d5 c2 be b2 a7 c8 be 80 80 9b be 95 62 99 3d
       -0.3805383 -0.3919044 -0.30371475 0.07489506
0001b0 4e 91 ce 3e 80 c9 ed be 7e f2 35 3f e5 8a bc 3d
       0.40345234 -0.46442795 0.7107314 0.092061795
0001c0 25 32 4e 3d aa 21 82 be 3b 20 47 be ff 85 95 3e
       0.05034079 -0.2541631 -0.19445889 0.29203793
0001d0 93 d1 92 3e 48 01 19 be e5 34 10 3e e5 bf 6c 3e
       0.28675517 -0.14941895 0.14082678 0.23120077
0001e0 18 49 dc bd ed 43 4c 3e 2f 11 15 3f 8d c2 ce 3e
       -0.10756129 0.19947787 0.58229345 0.40382805
0001f0 92 41 38 bf d2 9f b9 be 64 67 67 3e 64 99 8e be
       -0.7197505 -0.36254746 0.22598034 -0.27851403
000200 c1 48 00 bf 08 66 74 3e 31 08 36 3e d1 19 05 3d
       -0.50111014 0.23867047 0.17776562 0.032495324
000210 d7 1e 33 3f c7 7a e7 3e eb 99 d8 3e d3 fa bc bd
       0.6996893 0.4521086 0.4230493 -0.092275284
000220 7c b8 95 3e 02 50 b7 be 02 7e ae be 92 4d 97 be
       0.29242313 -0.3580323 -0.3408051 -0.2955137
000230 59 63 4e 3e e2 c3 0b be 7e e4 f0 3d 08 5e b9 bd
       0.20155086 -0.13648942 0.117623314 -0.09051138
000240 a7 14 bb be 34 d8 49 bd a6 ec 04 bf 0d 98 c2 bb
       -0.36539194 -0.049278453 -0.51923597 -0.005938536
000250 a4 a8 c7 3d 88 fb 2a 3f ac 6f 31 be 9c 69 d7 bd
       0.097489625 0.66790056 -0.17327756 -0.1051819
000260 63 91 cf bc 09 f9 a6 be b2 79 cb 3e 53 e9 d9 3e
       -0.02533788 -0.32611874 0.39741284 0.42560825
000270 61 30 18 bd 24 1a b6 3e 31 64 f0 be 37 52 be 3e
       -0.037155513 0.3556682 -0.4695144 0.371721
000280 05 66 62 3d 0a 08 3e bd 35 06 b3 3e 74 7d 11 bf
       0.055273075 -0.046394385 0.34965673 -0.5683205
000290 8b 8d a2 3d fb 24 3c 3e 4b cf 86 3e d2 21 e1 3d
       0.079371534 0.18373482 0.26330027 0.10992779
0002a0 e9 ff 97 be da ac c7 be 4b 0c 90 3e d6 ef 8f be
       -0.2968743 -0.38999063 0.2813438 -0.28112668
0002b0 e3 97 0c 3f d5 a0 be 3d ab 74 c4 be bf bc 5d 3d
       0.5491926 0.0930802 -0.3837026 0.05413508
0002c0 36 82 dd 3e af bb 41 3e 1a 91 0c be b3 fc 0c bf
       0.43263406 0.18919252 -0.13727227 -0.5507309
0002d0 58 40 8a 3e 21 60 8a bc 1a 1b c0 3e fd 8f 10 3e
       0.27002215 -0.016891541 0.37520677 0.14117427
0002e0 de cd a1 be d0 21 5c bf 50 2b 05 bd 14 c4 89 3e
       -0.31602377 -0.85989094 -0.03251201 0.26907408
0002f0 24 a3 8e 3e 06 aa 1c 3e af bd c0 3e 22 dd 56 bb
       0.2785884 0.15299234 0.37644717 -0.0032785614
000300 43 bb 17 be 88 ba a4 be 63 dd 69 3d b5 18 c7 3e
       -0.14817528 -0.32173562 0.057095896 0.38886037
000310 06 6c c9 3e 58 6a 67 3e 19 23 39 bb f2 e9 e7 3e
       0.39340228 0.2259916 -0.002824968 0.45295674
000320 46 a5 d2 3d d8 ef ba 3e a7 d8 64 3d f6 57 13 3f
       0.1028543 0.3651111 0.05587068 0.5755609
000330 57 ed bf 3d 10 ca d0 3e 9d 33 d8 be 08 fa 6e 3e
       0.09371441 0.4077916 -0.42226878 0.23337567
000340 5a 27 b4 3e 58 3a 98 bd d2 48 fc bd 23 3a e9 3c
       0.35186273 -0.07433003 -0.12318577 0.028470105
000350 e7 51 f6 3e 31 1b 22 be 99 62 04 3f 3b 04 60 3f
       0.48109362 -0.15830685 0.5171295 0.87506455
000360 38 25 db 3d 91 77 8c 3d 72 66 65 be 5d 62 45 be
       0.10700458 0.06858743 -0.22402361 -0.19275804
000370 19 b0 3d bf de f3 5d 3e 5a e1 83 be c8 06 2c 3e
       -0.7409683 0.21675059 -0.25757867 0.16799462
000380 a1 53 d9 3e e9 d3 c8 bc af 50 b5 be fc a7 cc 3c
       0.42446616 -0.02451511 -0.3541312 0.024982445
000390 04 2a 53 bf cd 09 dd 3e 29 ff d6 be fc 8e 10 bf
       -0.82485986 0.4317154 -0.41991547 -0.56468177
0003a0 d4 a8 b7 be 1e ed 0b bf 7a 8a d0 3e 9c d1 74 3e
       -0.35870993 -0.5465869 0.4073065 0.23908085
0003b0 3c 82 96 be 5c 1c 91 3e ae e8 b1 3d 30 1a 28 3e
       -0.29396236 0.2834195 0.08686958 0.1641624
0003c0 ba b0 2d 3c 89 24 9a 3e 6b b4 04 be 0f 9f 63 3f
       0.010601217 0.30106 -0.12959449 0.8891458
0003d0 56 d5 fa 3e b1 f6 da 3d f1 bc 5b 3d 4c 19 b7 bd
       0.48990887 0.10691584 0.053646985 -0.08940372
0003e0 9f 9a b3 bc a1 11 03 be 85 c9 87 3e 78 b7 00 bf
       -0.021924315 -0.12799694 0.26520935 -0.5027995
0003f0 50 c5 32 3e 6f db 37 3f 11 d3 9d be a3 38 0d bf
       0.17458081 0.71819204 -0.30825093 -0.55164546

features.denseblock1.denselayer3.norm2.weight f4 [32]
000000 0d 51 82 3f 08 fb 80 3f ad 63 82 3f fd a0 7a 3f
       1.0180985 1.0076609 1.0186669 0.979019
000010 99 ba 7d 3f 4d e0 82 3f 64 d7 80 3f f2 e3 80 3f
       0.9911285 1.0224701 1.0065732 1.0069563
000020 b0 e0 84 3f 3a 01 81 3f 5b 54 73 3f 5e cf 80 3f
       1.0381069 1.0078499 0.9505059 1.0063283
000030 0a 16 82 3f 3d 19 7c 3f ed 3f 83 3f 5c c7 80 3f
       1.0162976 0.9847601 1.0253884 1.006084
000040 e0 b0 76 3f dd d9 81 3f b3 2b 84 3f ea de 83 3f
       0.9636364 1.0144612 1.0325836 1.0302403
000050 82 91 7d 3f 99 9b 6d 3f 09 9f 7b 3f f7 f4 7f 3f
       0.9905015 0.9281555 0.98289543 0.9998316
000060 56 51 83 3f ec 22 7b 3f 24 45 7e 3f 28 9f 7e 3f
       1.0259197 0.9810016 0.9932425 0.99461603
000070 93 4b 7a 3f 7d ec 7f 3f d3 a0 7b 3f ba 23 80 3f
       0.9777157 0.9997023 0.98292273 1.0010903

features.denseblock1.denselayer3.norm2.bias f4 [32]
000000 2d 30 9f bc 91 30 1a bc 43 f0 06 bc 3c ea 32 bd
       -0.019432152 -0.009410993 -0.008235994 -0.043680415
000010 64 9f 06 3d 71 0b ca 3b 6b e6 87 3c 58 97 a9 bb
       0.03286685 0.0061659147 0.016589364 -0.0051755123
000020 f7 b2 1e 3c 07 1d 04 3d b5 80 4c bd 25 02 f5 bc
       0.009686223 0.032254245 -0.049927432 -0.02990825
000030 2b f5 5d 3c 7f 3f a0 3c 84 57 bd 3c a2 7e 92 3c
       0.013547222 0.019561527 0.02311302 0.017882649
000040 6f 49 f7 bc d5 03 4e bb 10 f1 ce bc 55 1f 19 ba
       -0.030186383 -0.003143539 -0.025261432 -0.00058411557
000050 98 9e f1 3c fb 54 44 bc da e7 d2 bc 01 e9 72 bc
       0.029494569 -0.011983152 -0.025745321 -0.01482606
000060 b0 c0 b4 3a 34 82 cf bc ad 04 a8 bc a7 64 fe bc
       0.0013790336 -0.02533064 -0.020510042 -0.031053854
000070 0e a0 3c bb c5 47 62 bc 35 0b 0d bd 40 0f 6d bc
       -0.0028781923 -0.0138110565 -0.034434516 -0.014468968

features.denseblock1.denselayer3.norm2.running_mean f4 [32]
000000 f5 09 e4 3e 19 e5 c9 3d 66 8b 02 3e 5d 34 09 bf
       0.44538847 0.0985815 0.12748489 -0.53595525
000010 91 0c 83 3c ef 00 94 be 4a bb 80 3e 7e a6 5b 3d
       0.015997203 -0.28906962 0.2514289 0.053625576
000020 e7 25 19 3e 51 a7 f1 3b 7f a7 9a 3e 09 2f 31 3f
       0.14955865 0.007374682 0.30205914 0.69212395
000030 fc d4 2a bf 60 f7 d5 3e 16 38 56 be a5 10 2a 3e
       -0.6673124 0.41790295 -0.20919833 0.16607912
000040 39 3c 1b bf 88 8c 72 3e 6d 57 28 3d 06 19 b6 bd
       -0.6063877 0.23686421 0.041099 -0.088914916
000050 4c 5f e3 bc 08 62 dc 3d 60 db 49 3d 23 4b b8 3e
       -0.027755402 0.107608855 0.049281478 0.35994825
000060 57 bc 81 3d 99 b4 10 3f 56 32 07 3e 97 ed b6 3d
       0.06334751 0.5652557 0.13202795 0.089320354
000070 b1 ee 76 3e 3e ab f4 be 63 22 15 3e 07 11 e8 3c
       0.24114491 -0.47786897 0.14563899 0.028328432
